…
, copy_paste_mode=flip, auto_augment=randaugment, erasing=0.4, crop_fraction=1.0, cfg=None, tracker=botsort.yaml, save_dir=runs/detect/train\nDownloading https://ultralytics.com/assets/Arial.ttf to '/root/.config/Ultralytics/Arial.ttf'...\n","output_type":"stream"},{"name":"stderr","text":"100%|██████████| 755k/755k [00:00<00:00, 25.8MB/s]\n","output_type":"stream"},{"name":"stdout","text":"Overriding model.yaml nc=80 with nc=1\n\n                   from  n    params  module                                       arguments                     \n  0                  -1  1      1856  ultralytics.nn.modules.conv.Conv             [3, 64, 3, 2]                 \n  1                  -1  1     73984  ultralytics.nn.modules.conv.Conv             [64, 128, 3, 2]               \n  2                  -1  2    173824  ultralytics.nn.modules.block.C3k2            [128, 256, 2, True, 0.25]     \n  3                  -1  1    590336  ultralytics.nn.modules.conv.Conv             [256, 256, 3, 2]              \n  4                  -1  2    691712  ultralytics.nn.modules.block.C3k2            [256, 512, 2, True, 0.25]     \n  5                  -1  1   2360320  ultralytics.nn.modules.conv.Conv             [512, 512, 3, 2]              \n  6                  -1  2   2234368  ultralytics.nn.modules.block.C3k2            [512, 512, 2, True]           \n  7                  -1  1   2360320  ultralytics.nn.modules.conv.Conv             [512, 512, 3, 2]              \n  8                  -1  2   2234368  ultralytics.nn.modules.block.C3k2            [512, 512, 2, True]           \n  9                  -1  1    656896  ultralytics.nn.modules.block.SPPF            [512, 512, 5]                 \n 10                  -1  2   1455616  ultralytics.nn.modules.block.C2PSA           [512, 512, 2]                 \n 11                  -1  1         0  torch.nn.modules.upsampling.Upsample         [None, 2, 'nearest']          \n 12             [-1, 6]  1         0  ultralytics.nn.modules.conv.Concat           [1]                           \n 13                  -1  2   2496512  ultralytics.nn.modules.block.C3k2            [1024, 512, 2, True]          \n 14                  -1  1         0  torch.nn.modules.upsampling.Upsample         [None, 2, 'nearest']          \n 15             [-1, 4]  1         0  ultralytics.nn.modules.conv.Concat           [1]                           \n 16                  -1  2    756736  ultralytics.nn.modules.block.C3k2            [1024, 256, 2, True]          \n 17                  -1  1    590336  ultralytics.nn.modules.conv.Conv             [256, 256, 3, 2]              \n 18            [-1, 13]  1         0  ultralytics.nn.modules.conv.Concat           [1]                           \n 19                  -1  2   2365440  ultralytics.nn.modules.block.C3k2            [768, 512, 2, True]           \n 20                  -1  1   2360320  ultralytics.nn.modules.conv.Conv             [512, 512, 3, 2]              \n 21            [-1, 10]  1         0  ultralytics.nn.modules.conv.Concat           [1]                           \n 22                  -1  2   2496512  ultralytics.nn.modules.block.C3k2            [1024, 512, 2, True]          \n 23        [16, 19, 22]  1   1411795  ultralytics.nn.modules.head.Detect           [1, [256, 512, 512]]          \nYOLO11l summary: 357 layers, 25,311,251 parameters, 25,311,235 gradients, 87.3 GFLOPs\n\nTransferred 1009/1015 items from pretrained weights\n\u001b[34m\u001b[1mTensorBoard: \u001b[0mStart with 'tensorboard --logdir runs/detect/train', view at http://localhost:6006/\nFreezing layer 'model.0.conv.weight'\nFreezing layer 'model.0.bn.weight'\nFreezing layer 'model.0.bn.
…
